…
metrics: ['loss', 'classifier_output_aux_loss', 'classifier_output_main_loss', 'classifier_output_aux_acc', 'classifier_output_main_acc']
Test score: [3.942749943153855, 2.9095973724372177, 1.0331525737533795, 0.635, 0.8561111111111112]
Test loss: 2.9095973724372177
Test accuracy of aux: 0.635
Test accuracy of main: 0.8561111111111112
Saving model to disk 

__________________________________________________________________________________________________
Layer (type)                    Output Shape         Param #     Connected to                     
==================================================================================================
main_input_1 (InputLayer)       (None, 29, 6, 20, 3) 0                                            
__________________________________________________________________________________________________
main_input_2 (InputLayer)       (None, 29, 6, 20, 3) 0                                            
__________________________________________________________________________________________________
feature_output_aux (TimeDistrib (None, 29, 64)       78400       main_input_1[0][0]               
__________________________________________________________________________________________________
feature_output_main (TimeDistri (None, 29, 64)       78400       main_input_2[0][0]               
__________________________________________________________________________________________________
gru_1 (GRU)                     (None, 128)          74112       feature_output_aux[0][0]         
__________________________________________________________________________________________________
gru_2 (GRU)                     (None, 128)          74112       feature_output_main[0][0]        
__________________________________________________________________________________________________
dropout_2 (Dropout)             (None, 128)          0           gru_1[0][0]                      
__________________________________________________________________________________________________
dropout_4 (Dropout)             (None, 128)          0           gru_2[0][0]                      
__________________________________________________________________________________________________
gradient_reversal_1 (GradientRe (None, 128)          0           dropout_4[0][0]                  
__________________________________________________________________________________________________
gradient_reversal_2 (GradientRe (None, 128)          0           dropout_2[0][0]                  
__________________________________________________________________________________________________
concatenate_1 (Concatenate)     (None, 256)          0           dropout_2[0][0]                  
                                                                 gradient_reversal_1[0][0]        
__________________________________________________________________________________________________
concatenate_2 (Concatenate)     (None, 256)          0           dropout_4[0][0]                  
                                                                 gradient_reversal_2[0][0]        
__________________________________________________________________________________________________
dense_5 (Dense)                 (None, 128)          32896       concatenate_1[0][0]              
__________________________________________________________________________________________________
dense_6 (Dense)                 (None, 128)          32896       concatenate_2[0][0]              
__________________________________________________________________________________________________
dropout_5 (Dropout)             (None, 128)          0           dense_5[0][0]                    
__________________________________________________________________________________________________
dropout_6 (Dropout)             (None, 128)          0           dense_6[0][0]                    
__________________________________________________________________________________________________
classifier_output_aux (Dense)   (None, 6)            774         dropout_5[0][0]                  
__________________________________________________________________________________________________
classifier_output_main (Dense)  (None, 6)            774         dropout_6[0][0]                  
==================================================================================================
Total params: 372,364
Trainable params: 372,364
Non-trainable params: 0
__________________________________________________________________________________________________
None
Loading Data...
domain_type: 2
Loaded Data wf_tally_slice 2 (7200, 29, 6, 20, 3) 4 (7200, 6) 2 (1800, 29, 6, 20, 3)
n_timesteps: 29
Train on 6480 samples, validate on 720 samples
Epoch 1/1000
 - 22s - loss: 3.2161 - classifier_output_aux_loss: 1.5747 - classifier_output_main_loss: 1.6414 - classifier_output_aux_acc: 0.3279 - classifier_output_main_acc: 0.2890 - val_loss: 2.8627 - val_classifier_output_aux_loss: 1.3933 - val_classifier_output_main_loss: 1.4694 - val_classifier_output_aux_acc: 0.4278 - val_classifier_output_main_acc: 0.4056
…
metrics: ['loss', 'classifier_output_aux_loss', 'classifier_output_main_loss', 'classifier_output_aux_acc', 'classifier_output_main_acc']
Test score: [3.794501773516337, 3.189962838747435, 0.6045389440309418, 0.6588888888888889, 0.9211111111111111]
Test loss: 3.189962838747435
Test accuracy of aux: 0.6588888888888889
Test accuracy of main: 0.9211111111111111
Saving model to disk 

__________________________________________________________________________________________________
Layer (type)                    Output Shape         Param #     Connected to                     
==================================================================================================
main_input_1 (InputLayer)       (None, 29, 6, 20, 3) 0                                            
__________________________________________________________________________________________________
main_input_2 (InputLayer)       (None, 29, 6, 20, 3) 0                                            
__________________________________________________________________________________________________
feature_output_aux (TimeDistrib (None, 29, 64)       78400       main_input_1[0][0]               
__________________________________________________________________________________________________
feature_output_main (TimeDistri (None, 29, 64)       78400       main_input_2[0][0]               
__________________________________________________________________________________________________
gru_11 (GRU)                    (None, 128)          74112       feature_output_aux[0][0]         
__________________________________________________________________________________________________
gru_12 (GRU)                    (None, 128)          74112       feature_output_main[0][0]        
__________________________________________________________________________________________________
dropout_32 (Dropout)            (None, 128)          0           gru_11[0][0]                     
__________________________________________________________________________________________________
dropout_34 (Dropout)            (None, 128)          0           gru_12[0][0]                     
__________________________________________________________________________________________________
gradient_reversal_11 (GradientR (None, 128)          0           dropout_34[0][0]                 
__________________________________________________________________________________________________
gradient_reversal_12 (GradientR (None, 128)          0           dropout_32[0][0]                 
__________________________________________________________________________________________________
concatenate_11 (Concatenate)    (None, 256)          0           dropout_32[0][0]                 
                                                                 gradient_reversal_11[0][0]       
__________________________________________________________________________________________________
concatenate_12 (Concatenate)    (None, 256)          0           dropout_34[0][0]                 
                                                                 gradient_reversal_12[0][0]       
__________________________________________________________________________________________________
dense_35 (Dense)                (None, 128)          32896       concatenate_11[0][0]             
__________________________________________________________________________________________________
dense_36 (Dense)                (None, 128)          32896       concatenate_12[0][0]             
__________________________________________________________________________________________________
dropout_35 (Dropout)            (None, 128)          0           dense_35[0][0]                   
__________________________________________________________________________________________________
dropout_36 (Dropout)            (None, 128)          0           dense_36[0][0]                   
__________________________________________________________________________________________________
classifier_output_aux (Dense)   (None, 6)            774         dropout_35[0][0]                 
__________________________________________________________________________________________________
classifier_output_main (Dense)  (None, 6)            774         dropout_36[0][0]                 
==================================================================================================
Total params: 372,364
Trainable params: 372,364
Non-trainable params: 0
__________________________________________________________________________________________________
None
