…
 [0.         … metrics: ['loss', 'classifier_output_aux_loss', 'classifier_output_main_loss', 'classifier_output_aux_acc', 'classifier_output_main_acc']
Test score: [1.3466246442827914, 1.0256095158639882, 0.3210151401238373, 0.8094444444444444, 0.9338888888888889]
Test loss: 1.0256095158639882
Test accuracy of aux: 0.8094444444444444
Test accuracy of main: 0.9338888888888889
Saving model to disk 

__________________________________________________________________________________________________
Layer (type)                    Output Shape         Param #     Connected to                     
==================================================================================================
main_input_1 (InputLayer)       (None, 29, 6, 20, 3) 0                                            
__________________________________________________________________________________________________
main_input_2 (InputLayer)       (None, 29, 6, 20, 3) 0                                            
__________________________________________________________________________________________________
feature_output_aux (TimeDistrib (None, 29, 64)       78400       main_input_1[0][0]               
__________________________________________________________________________________________________
feature_output_main (TimeDistri (None, 29, 64)       78400       main_input_2[0][0]               
__________________________________________________________________________________________________
gru_1 (GRU)                     (None, 128)          74112       feature_output_aux[0][0]         
__________________________________________________________________________________________________
gru_2 (GRU)                     (None, 128)          74112       feature_output_main[0][0]        
__________________________________________________________________________________________________
dropout_2 (Dropout)             (None, 128)          0           gru_1[0][0]                      
__________________________________________________________________________________________________
dropout_4 (Dropout)             (None, 128)          0           gru_2[0][0]                      
__________________________________________________________________________________________________
gradient_reversal_1 (GradientRe (None, 128)          0           dropout_4[0][0]                  
__________________________________________________________________________________________________
gradient_reversal_2 (GradientRe (None, 128)          0           dropout_2[0][0]                  
__________________________________________________________________________________________________
concatenate_1 (Concatenate)     (None, 256)          0           dropout_2[0][0]                  
                                                                 gradient_reversal_1[0][0]        
__________________________________________________________________________________________________
concatenate_2 (Concatenate)     (None, 256)          0           dropout_4[0][0]                  
                                                                 gradient_reversal_2[0][0]        
__________________________________________________________________________________________________
dense_5 (Dense)                 (None, 128)          32896       concatenate_1[0][0]              
__________________________________________________________________________________________________
dense_6 (Dense)                 (None, 128)          32896       concatenate_2[0][0]              
__________________________________________________________________________________________________
dropout_5 (Dropout)             (None, 128)          0           dense_5[0][0]                    
__________________________________________________________________________________________________
dropout_6 (Dropout)             (None, 128)          0           dense_6[0][0]                    
__________________________________________________________________________________________________
classifier_output_aux (Dense)   (None, 6)            774         dropout_5[0][0]                  
__________________________________________________________________________________________________
classifier_output_main (Dense)  (None, 6)            774         dropout_6[0][0]                  
==================================================================================================
Total params: 372,364
Trainable params: 372,364
Non-trainable params: 0
__________________________________________________________________________________________________
None
Loading Data...
domain_type: 2
Loaded Data wf_tally_slice 2 (7200, 29, 6, 20, 3) 4 (7200, 6) 2 (1800, 29, 6, 20, 3)
n_timesteps: 29
Train on 6480 samples, validate on 720 samples
Epoch 1/1000
 - 22s - loss: 3.3161 - classifier_output_aux_loss: 1.6470 - classifier_output_main_loss: 1.6690 - classifier_output_aux_acc: 0.2937 - classifier_output_main_acc: 0.2790 - val_loss: 2.9837 - val_classifier_output_aux_loss: 1.5343 - val_classifier_output_main_loss: 1.4494 - val_classifier_output_aux_acc: 0.3708 - val_classifier_output_main_acc: 0.4333
…
metrics: ['loss', 'classifier_output_aux_loss', 'classifier_output_main_loss', 'classifier_output_aux_acc', 'classifier_output_main_acc']
Test score: [1.5225105667114258, 1.1939922312895457, 0.3285183482944, 0.8111111111111111, 0.9511111111111111]
Test loss: 1.1939922312895457
Test accuracy of aux: 0.8111111111111111
Test accuracy of main: 0.9511111111111111
Saving model to disk 

__________________________________________________________________________________________________
Layer (type)                    Output Shape         Param #     Connected to                     
==================================================================================================
main_input_1 (InputLayer)       (None, 29, 6, 20, 3) 0                                            
__________________________________________________________________________________________________
main_input_2 (InputLayer)       (None, 29, 6, 20, 3) 0                                            
__________________________________________________________________________________________________
feature_output_aux (TimeDistrib (None, 29, 64)       78400       main_input_1[0][0]               
__________________________________________________________________________________________________
feature_output_main (TimeDistri (None, 29, 64)       78400       main_input_2[0][0]               
__________________________________________________________________________________________________
gru_5 (GRU)                     (None, 128)          74112       feature_output_aux[0][0]         
__________________________________________________________________________________________________
gru_6 (GRU)                     (None, 128)          74112       feature_output_main[0][0]        
__________________________________________________________________________________________________
dropout_14 (Dropout)            (None, 128)          0           gru_5[0][0]                      
__________________________________________________________________________________________________
dropout_16 (Dropout)            (None, 128)          0           gru_6[0][0]                      
__________________________________________________________________________________________________
gradient_reversal_5 (GradientRe (None, 128)          0           dropout_16[0][0]                 
__________________________________________________________________________________________________
gradient_reversal_6 (GradientRe (None, 128)          0           dropout_14[0][0]                 
__________________________________________________________________________________________________
concatenate_5 (Concatenate)     (None, 256)          0           dropout_14[0][0]                 
                                                                 gradient_reversal_5[0][0]        
__________________________________________________________________________________________________
concatenate_6 (Concatenate)     (None, 256)          0           dropout_16[0][0]                 
                                                                 gradient_reversal_6[0][0]        
__________________________________________________________________________________________________
dense_17 (Dense)                (None, 128)          32896       concatenate_5[0][0]              
__________________________________________________________________________________________________
dense_18 (Dense)                (None, 128)          32896       concatenate_6[0][0]              
__________________________________________________________________________________________________
dropout_17 (Dropout)            (None, 128)          0           dense_17[0][0]                   
__________________________________________________________________________________________________
dropout_18 (Dropout)            (None, 128)          0           dense_18[0][0]                   
__________________________________________________________________________________________________
classifier_output_aux (Dense)   (None, 6)            774         dropout_17[0][0]                 
__________________________________________________________________________________________________
classifier_output_main (Dense)  (None, 6)            774         dropout_18[0][0]                 
==================================================================================================
Total params: 372,364
Trainable params: 372,364
Non-trainable params: 0
__________________________________________________________________________________________________
None
