…
metrics: ['loss', 'classifier_output_aux_loss', 'classifier_output_main_loss', 'classifier_output_aux_acc', 'classifier_output_main_acc']
Test score: [0.3048232106522967, 0.16307746561038786, 0.14174574588658287, 0.9577777777777777, 0.9672222222222222]
Test loss: 0.16307746561038786
Test accuracy of aux: 0.9577777777777777
Test accuracy of main: 0.9672222222222222
Saving model to disk 

__________________________________________________________________________________________________
Layer (type)                    Output Shape         Param #     Connected to                     
==================================================================================================
main_input_1 (InputLayer)       (None, 29, 6, 20, 3) 0                                            
__________________________________________________________________________________________________
main_input_2 (InputLayer)       (None, 29, 6, 20, 3) 0                                            
__________________________________________________________________________________________________
feature_output_aux (TimeDistrib (None, 29, 64)       78400       main_input_1[0][0]               
__________________________________________________________________________________________________
feature_output_main (TimeDistri (None, 29, 64)       78400       main_input_2[0][0]               
__________________________________________________________________________________________________
gru_1 (GRU)                     (None, 128)          74112       feature_output_aux[0][0]         
__________________________________________________________________________________________________
gru_2 (GRU)                     (None, 128)          74112       feature_output_main[0][0]        
__________________________________________________________________________________________________
dropout_2 (Dropout)             (None, 128)          0           gru_1[0][0]                      
__________________________________________________________________________________________________
dropout_4 (Dropout)             (None, 128)          0           gru_2[0][0]                      
__________________________________________________________________________________________________
gradient_reversal_1 (GradientRe (None, 128)          0           dropout_4[0][0]                  
__________________________________________________________________________________________________
gradient_reversal_2 (GradientRe (None, 128)          0           dropout_2[0][0]                  
__________________________________________________________________________________________________
concatenate_1 (Concatenate)     (None, 256)          0           dropout_2[0][0]                  
                                                                 gradient_reversal_1[0][0]        
__________________________________________________________________________________________________
concatenate_2 (Concatenate)     (None, 256)          0           dropout_4[0][0]                  
                                                                 gradient_reversal_2[0][0]        
__________________________________________________________________________________________________
dense_5 (Dense)                 (None, 128)          32896       concatenate_1[0][0]              
__________________________________________________________________________________________________
dense_6 (Dense)                 (None, 128)          32896       concatenate_2[0][0]              
__________________________________________________________________________________________________
dropout_5 (Dropout)             (None, 128)          0           dense_5[0][0]                    
__________________________________________________________________________________________________
dropout_6 (Dropout)             (None, 128)          0           dense_6[0][0]                    
__________________________________________________________________________________________________
classifier_output_aux (Dense)   (None, 6)            774         dropout_5[0][0]                  
__________________________________________________________________________________________________
classifier_output_main (Dense)  (None, 6)            774         dropout_6[0][0]                  
==================================================================================================
Total params: 372,364
Trainable params: 372,364
Non-trainable params: 0
__________________________________________________________________________________________________
None
Loading Data...
domain_type: 4
Loaded Data wf_tally_slice 2 (7200, 29, 6, 20, 3) 4 (7200, 6) 2 (1800, 29, 6, 20, 3)
n_timesteps: 29
Train on 6480 samples, validate on 720 samples
Epoch 1/1000
 - 30s - loss: 3.2274 - classifier_output_aux_loss: 1.5936 - classifier_output_main_loss: 1.6337 - classifier_output_aux_acc: 0.3256 - classifier_output_main_acc: 0.3069 - val_loss: 2.8468 - val_classifier_output_aux_loss: 1.4379 - val_classifier_output_main_loss: 1.4089 - val_classifier_output_aux_acc: 0.4139 - val_classifier_output_main_acc: 0.4583
…
metrics: ['loss', 'classifier_output_aux_loss', 'classifier_output_main_loss', 'classifier_output_aux_acc', 'classifier_output_main_acc']
Test score: [0.44025355788568654, 0.2549468339829602, 0.18530672484681823, 0.9427777777777778, 0.9638888888888889]
Test loss: 0.2549468339829602
Test accuracy of aux: 0.9427777777777778
Test accuracy of main: 0.9638888888888889
Saving model to disk 

__________________________________________________________________________________________________
Layer (type)                    Output Shape         Param #     Connected to                     
==================================================================================================
main_input_1 (InputLayer)       (None, 29, 6, 20, 3) 0                                            
__________________________________________________________________________________________________
main_input_2 (InputLayer)       (None, 29, 6, 20, 3) 0                                            
__________________________________________________________________________________________________
feature_output_aux (TimeDistrib (None, 29, 64)       78400       main_input_1[0][0]               
__________________________________________________________________________________________________
feature_output_main (TimeDistri (None, 29, 64)       78400       main_input_2[0][0]               
__________________________________________________________________________________________________
gru_5 (GRU)                     (None, 128)          74112       feature_output_aux[0][0]         
__________________________________________________________________________________________________
gru_6 (GRU)                     (None, 128)          74112       feature_output_main[0][0]        
__________________________________________________________________________________________________
dropout_14 (Dropout)            (None, 128)          0           gru_5[0][0]                      
__________________________________________________________________________________________________
dropout_16 (Dropout)            (None, 128)          0           gru_6[0][0]                      
__________________________________________________________________________________________________
gradient_reversal_5 (GradientRe (None, 128)          0           dropout_16[0][0]                 
__________________________________________________________________________________________________
gradient_reversal_6 (GradientRe (None, 128)          0           dropout_14[0][0]                 
__________________________________________________________________________________________________
concatenate_5 (Concatenate)     (None, 256)          0           dropout_14[0][0]                 
                                                                 gradient_reversal_5[0][0]        
__________________________________________________________________________________________________
concatenate_6 (Concatenate)     (None, 256)          0           dropout_16[0][0]                 
                                                                 gradient_reversal_6[0][0]        
__________________________________________________________________________________________________
dense_17 (Dense)                (None, 128)          32896       concatenate_5[0][0]              
__________________________________________________________________________________________________
dense_18 (Dense)                (None, 128)          32896       concatenate_6[0][0]              
__________________________________________________________________________________________________
dropout_17 (Dropout)            (None, 128)          0           dense_17[0][0]                   
__________________________________________________________________________________________________
dropout_18 (Dropout)            (None, 128)          0           dense_18[0][0]                   
__________________________________________________________________________________________________
classifier_output_aux (Dense)   (None, 6)            774         dropout_17[0][0]                 
__________________________________________________________________________________________________
classifier_output_main (Dense)  (None, 6)            774         dropout_18[0][0]                 
==================================================================================================
Total params: 372,364
Trainable params: 372,364
Non-trainable params: 0
__________________________________________________________________________________________________
None
