…
metrics: ['loss', 'classifier_output_aux_loss', 'classifier_output_main_loss', 'classifier_output_aux_acc', 'classifier_output_main_acc']
Test score: [3.357619222725431, 2.111476222403031, 1.2461429755669087, 0.7444444444444445, 0.8522222222222222]
Test loss: 2.111476222403031
Test accuracy of aux: 0.7444444444444445
Test accuracy of main: 0.8522222222222222
Saving model to disk 

__________________________________________________________________________________________________
Layer (type)                    Output Shape         Param #     Connected to                     
==================================================================================================
main_input_1 (InputLayer)       (None, 29, 6, 20, 3) 0                                            
__________________________________________________________________________________________________
main_input_2 (InputLayer)       (None, 29, 6, 20, 3) 0                                            
__________________________________________________________________________________________________
feature_output_aux (TimeDistrib (None, 29, 64)       78400       main_input_1[0][0]               
__________________________________________________________________________________________________
feature_output_main (TimeDistri (None, 29, 64)       78400       main_input_2[0][0]               
__________________________________________________________________________________________________
gru_1 (GRU)                     (None, 128)          74112       feature_output_aux[0][0]         
__________________________________________________________________________________________________
gru_2 (GRU)                     (None, 128)          74112       feature_output_main[0][0]        
__________________________________________________________________________________________________
dropout_2 (Dropout)             (None, 128)          0           gru_1[0][0]                      
__________________________________________________________________________________________________
dropout_4 (Dropout)             (None, 128)          0           gru_2[0][0]                      
__________________________________________________________________________________________________
gradient_reversal_1 (GradientRe (None, 128)          0           dropout_4[0][0]                  
__________________________________________________________________________________________________
gradient_reversal_2 (GradientRe (None, 128)          0           dropout_2[0][0]                  
__________________________________________________________________________________________________
concatenate_1 (Concatenate)     (None, 256)          0           dropout_2[0][0]                  
                                                                 gradient_reversal_1[0][0]        
__________________________________________________________________________________________________
concatenate_2 (Concatenate)     (None, 256)          0           dropout_4[0][0]                  
                                                                 gradient_reversal_2[0][0]        
__________________________________________________________________________________________________
dense_5 (Dense)                 (None, 128)          32896       concatenate_1[0][0]              
__________________________________________________________________________________________________
dense_6 (Dense)                 (None, 128)          32896       concatenate_2[0][0]              
__________________________________________________________________________________________________
dropout_5 (Dropout)             (None, 128)          0           dense_5[0][0]                    
__________________________________________________________________________________________________
dropout_6 (Dropout)             (None, 128)          0           dense_6[0][0]                    
__________________________________________________________________________________________________
classifier_output_aux (Dense)   (None, 6)            774         dropout_5[0][0]                  
__________________________________________________________________________________________________
classifier_output_main (Dense)  (None, 6)            774         dropout_6[0][0]                  
==================================================================================================
Total params: 372,364
Trainable params: 372,364
Non-trainable params: 0
__________________________________________________________________________________________________
None
Loading Data...
domain_type: 3
Loaded Data wf_tally_slice 2 (7200, 29, 6, 20, 3) 4 (7200, 6) 2 (1800, 29, 6, 20, 3)
n_timesteps: 29
Train on 6480 samples, validate on 720 samples
Epoch 1/1000
 - 23s - loss: 3.2555 - classifier_output_aux_loss: 1.6210 - classifier_output_main_loss: 1.6345 - classifier_output_aux_acc: 0.3086 - classifier_output_main_acc: 0.2968 - val_loss: 2.8070 - val_classifier_output_aux_loss: 1.4257 - val_classifier_output_main_loss: 1.3813 - val_classifier_output_aux_acc: 0.4139 - val_classifier_output_main_acc: 0.4667
…
metrics: ['loss', 'classifier_output_aux_loss', 'classifier_output_main_loss', 'classifier_output_aux_acc', 'classifier_output_main_acc']
Test score: [3.6416011264589097, 2.3453109843201108, 1.2962901219518648, 0.7427777777777778, 0.8527777777777777]
Test loss: 2.3453109843201108
Test accuracy of aux: 0.7427777777777778
Test accuracy of main: 0.8527777777777777
Saving model to disk 

__________________________________________________________________________________________________
Layer (type)                    Output Shape         Param #     Connected to                     
==================================================================================================
main_input_1 (InputLayer)       (None, 29, 6, 20, 3) 0                                            
__________________________________________________________________________________________________
main_input_2 (InputLayer)       (None, 29, 6, 20, 3) 0                                            
__________________________________________________________________________________________________
feature_output_aux (TimeDistrib (None, 29, 64)       78400       main_input_1[0][0]               
__________________________________________________________________________________________________
feature_output_main (TimeDistri (None, 29, 64)       78400       main_input_2[0][0]               
__________________________________________________________________________________________________
gru_19 (GRU)                    (None, 128)          74112       feature_output_aux[0][0]         
__________________________________________________________________________________________________
gru_20 (GRU)                    (None, 128)          74112       feature_output_main[0][0]        
__________________________________________________________________________________________________
dropout_56 (Dropout)            (None, 128)          0           gru_19[0][0]                     
__________________________________________________________________________________________________
dropout_58 (Dropout)            (None, 128)          0           gru_20[0][0]                     
__________________________________________________________________________________________________
gradient_reversal_19 (GradientR (None, 128)          0           dropout_58[0][0]                 
__________________________________________________________________________________________________
gradient_reversal_20 (GradientR (None, 128)          0           dropout_56[0][0]                 
__________________________________________________________________________________________________
concatenate_19 (Concatenate)    (None, 256)          0           dropout_56[0][0]                 
                                                                 gradient_reversal_19[0][0]       
__________________________________________________________________________________________________
concatenate_20 (Concatenate)    (None, 256)          0           dropout_58[0][0]                 
                                                                 gradient_reversal_20[0][0]       
__________________________________________________________________________________________________
dense_59 (Dense)                (None, 128)          32896       concatenate_19[0][0]             
__________________________________________________________________________________________________
dense_60 (Dense)                (None, 128)          32896       concatenate_20[0][0]             
__________________________________________________________________________________________________
dropout_59 (Dropout)            (None, 128)          0           dense_59[0][0]                   
__________________________________________________________________________________________________
dropout_60 (Dropout)            (None, 128)          0           dense_60[0][0]                   
__________________________________________________________________________________________________
classifier_output_aux (Dense)   (None, 6)            774         dropout_59[0][0]                 
__________________________________________________________________________________________________
classifier_output_main (Dense)  (None, 6)            774         dropout_60[0][0]                 
==================================================================================================
Total params: 372,364
Trainable params: 372,364
Non-trainable params: 0
__________________________________________________________________________________________________
None
