…
normalized cm_main: [[… metrics: ['loss', 'classifier_output_aux_loss', 'classifier_output_main_loss', 'classifier_output_aux_acc', 'classifier_output_main_acc']
Test score: [5.251789603994952, 3.7142964278327093, 1.5374931503992735, 0.55, 0.7533333333333333]
Test loss: 3.7142964278327093
Test accuracy of aux: 0.55
Test accuracy of main: 0.7533333333333333
Saving model to disk 

__________________________________________________________________________________________________
Layer (type)                    Output Shape         Param #     Connected to                     
==================================================================================================
main_input_1 (InputLayer)       (None, 29, 6, 20, 3) 0                                            
__________________________________________________________________________________________________
main_input_2 (InputLayer)       (None, 29, 6, 20, 3) 0                                            
__________________________________________________________________________________________________
feature_output_aux (TimeDistrib (None, 29, 64)       78400       main_input_1[0][0]               
__________________________________________________________________________________________________
feature_output_main (TimeDistri (None, 29, 64)       78400       main_input_2[0][0]               
__________________________________________________________________________________________________
gru_1 (GRU)                     (None, 128)          74112       feature_output_aux[0][0]         
__________________________________________________________________________________________________
gru_2 (GRU)                     (None, 128)          74112       feature_output_main[0][0]        
__________________________________________________________________________________________________
dropout_2 (Dropout)             (None, 128)          0           gru_1[0][0]                      
__________________________________________________________________________________________________
dropout_4 (Dropout)             (None, 128)          0           gru_2[0][0]                      
__________________________________________________________________________________________________
gradient_reversal_1 (GradientRe (None, 128)          0           dropout_4[0][0]                  
__________________________________________________________________________________________________
gradient_reversal_2 (GradientRe (None, 128)          0           dropout_2[0][0]                  
__________________________________________________________________________________________________
concatenate_1 (Concatenate)     (None, 256)          0           dropout_2[0][0]                  
                                                                 gradient_reversal_1[0][0]        
__________________________________________________________________________________________________
concatenate_2 (Concatenate)     (None, 256)          0           dropout_4[0][0]                  
                                                                 gradient_reversal_2[0][0]        
__________________________________________________________________________________________________
dense_5 (Dense)                 (None, 128)          32896       concatenate_1[0][0]              
__________________________________________________________________________________________________
dense_6 (Dense)                 (None, 128)          32896       concatenate_2[0][0]              
__________________________________________________________________________________________________
dropout_5 (Dropout)             (None, 128)          0           dense_5[0][0]                    
__________________________________________________________________________________________________
dropout_6 (Dropout)             (None, 128)          0           dense_6[0][0]                    
__________________________________________________________________________________________________
classifier_output_aux (Dense)   (None, 6)            774         dropout_5[0][0]                  
__________________________________________________________________________________________________
classifier_output_main (Dense)  (None, 6)            774         dropout_6[0][0]                  
==================================================================================================
Total params: 372,364
Trainable params: 372,364
Non-trainable params: 0
__________________________________________________________________________________________________
None
Loading Data...
domain_type: 3
Loaded Data wf_tally_slice 2 (7200, 29, 6, 20, 3) 4 (7200, 6) 2 (1800, 29, 6, 20, 3)
n_timesteps: 29
Train on 6480 samples, validate on 720 samples
Epoch 1/1000
 - 25s - loss: 3.2576 - classifier_output_aux_loss: 1.5969 - classifier_output_main_loss: 1.6607 - classifier_output_aux_acc: 0.3285 - classifier_output_main_acc: 0.2816 - val_loss: 2.7785 - val_classifier_output_aux_loss: 1.3854 - val_classifier_output_main_loss: 1.3931 - val_classifier_output_aux_acc: 0.4444 - val_classifier_output_main_acc: 0.4708
…
 [0.01666667 0.01       0.89       0.07666667 0.         … metrics: ['loss', 'classifier_output_aux_loss', 'classifier_output_main_loss', 'classifier_output_aux_acc', 'classifier_output_main_acc']
Test score: [3.863543503549364, 2.6636229520373873, 1.1999205790625678, 0.5388888888888889, 0.7533333333333333]
Test loss: 2.6636229520373873
Test accuracy of aux: 0.5388888888888889
Test accuracy of main: 0.7533333333333333
Saving model to disk 

__________________________________________________________________________________________________
Layer (type)                    Output Shape         Param #     Connected to                     
==================================================================================================
main_input_1 (InputLayer)       (None, 29, 6, 20, 3) 0                                            
__________________________________________________________________________________________________
main_input_2 (InputLayer)       (None, 29, 6, 20, 3) 0                                            
__________________________________________________________________________________________________
feature_output_aux (TimeDistrib (None, 29, 64)       78400       main_input_1[0][0]               
__________________________________________________________________________________________________
feature_output_main (TimeDistri (None, 29, 64)       78400       main_input_2[0][0]               
__________________________________________________________________________________________________
gru_5 (GRU)                     (None, 128)          74112       feature_output_aux[0][0]         
__________________________________________________________________________________________________
gru_6 (GRU)                     (None, 128)          74112       feature_output_main[0][0]        
__________________________________________________________________________________________________
dropout_14 (Dropout)            (None, 128)          0           gru_5[0][0]                      
__________________________________________________________________________________________________
dropout_16 (Dropout)            (None, 128)          0           gru_6[0][0]                      
__________________________________________________________________________________________________
gradient_reversal_5 (GradientRe (None, 128)          0           dropout_16[0][0]                 
__________________________________________________________________________________________________
gradient_reversal_6 (GradientRe (None, 128)          0           dropout_14[0][0]                 
__________________________________________________________________________________________________
concatenate_5 (Concatenate)     (None, 256)          0           dropout_14[0][0]                 
                                                                 gradient_reversal_5[0][0]        
__________________________________________________________________________________________________
concatenate_6 (Concatenate)     (None, 256)          0           dropout_16[0][0]                 
                                                                 gradient_reversal_6[0][0]        
__________________________________________________________________________________________________
dense_17 (Dense)                (None, 128)          32896       concatenate_5[0][0]              
__________________________________________________________________________________________________
dense_18 (Dense)                (None, 128)          32896       concatenate_6[0][0]              
__________________________________________________________________________________________________
dropout_17 (Dropout)            (None, 128)          0           dense_17[0][0]                   
__________________________________________________________________________________________________
dropout_18 (Dropout)            (None, 128)          0           dense_18[0][0]                   
__________________________________________________________________________________________________
classifier_output_aux (Dense)   (None, 6)            774         dropout_17[0][0]                 
__________________________________________________________________________________________________
classifier_output_main (Dense)  (None, 6)            774         dropout_18[0][0]                 
==================================================================================================
Total params: 372,364
Trainable params: 372,364
Non-trainable params: 0
__________________________________________________________________________________________________
None
