…
normalized cm_main: [[… metrics: ['loss', 'classifier_output_aux_loss', 'classifier_output_main_loss', 'classifier_output_aux_acc', 'classifier_output_main_acc']
Test score: [3.660661998854743, 2.3104306148820455, 1.350231403377321, 0.62, 0.7588888888888888]
Test loss: 2.3104306148820455
Test accuracy of aux: 0.62
Test accuracy of main: 0.7588888888888888
Saving model to disk 

__________________________________________________________________________________________________
Layer (type)                    Output Shape         Param #     Connected to                     
==================================================================================================
main_input_1 (InputLayer)       (None, 29, 6, 20, 1) 0                                            
__________________________________________________________________________________________________
main_input_2 (InputLayer)       (None, 29, 6, 20, 1) 0                                            
__________________________________________________________________________________________________
feature_output_aux (TimeDistrib (None, 29, 64)       78112       main_input_1[0][0]               
__________________________________________________________________________________________________
feature_output_main (TimeDistri (None, 29, 64)       78112       main_input_2[0][0]               
__________________________________________________________________________________________________
gru_1 (GRU)                     (None, 128)          74112       feature_output_aux[0][0]         
__________________________________________________________________________________________________
gru_2 (GRU)                     (None, 128)          74112       feature_output_main[0][0]        
__________________________________________________________________________________________________
dropout_2 (Dropout)             (None, 128)          0           gru_1[0][0]                      
__________________________________________________________________________________________________
dropout_4 (Dropout)             (None, 128)          0           gru_2[0][0]                      
__________________________________________________________________________________________________
gradient_reversal_1 (GradientRe (None, 128)          0           dropout_4[0][0]                  
__________________________________________________________________________________________________
gradient_reversal_2 (GradientRe (None, 128)          0           dropout_2[0][0]                  
__________________________________________________________________________________________________
concatenate_1 (Concatenate)     (None, 256)          0           dropout_2[0][0]                  
                                                                 gradient_reversal_1[0][0]        
__________________________________________________________________________________________________
concatenate_2 (Concatenate)     (None, 256)          0           dropout_4[0][0]                  
                                                                 gradient_reversal_2[0][0]        
__________________________________________________________________________________________________
dense_5 (Dense)                 (None, 128)          32896       concatenate_1[0][0]              
__________________________________________________________________________________________________
dense_6 (Dense)                 (None, 128)          32896       concatenate_2[0][0]              
__________________________________________________________________________________________________
dropout_5 (Dropout)             (None, 128)          0           dense_5[0][0]                    
__________________________________________________________________________________________________
dropout_6 (Dropout)             (None, 128)          0           dense_6[0][0]                    
__________________________________________________________________________________________________
classifier_output_aux (Dense)   (None, 6)            774         dropout_5[0][0]                  
__________________________________________________________________________________________________
classifier_output_main (Dense)  (None, 6)            774         dropout_6[0][0]                  
==================================================================================================
Total params: 371,788
Trainable params: 371,788
Non-trainable params: 0
__________________________________________________________________________________________________
None
Loading Data...
domain_type: 3
Loaded Data wf_tally_slice 2 (7200, 29, 6, 20, 1) 4 (7200, 6) 2 (1800, 29, 6, 20, 1)
n_timesteps: 29
Train on 6480 samples, validate on 720 samples
Epoch 1/1000
 - 28s - loss: 3.3657 - classifier_output_aux_loss: 1.6898 - classifier_output_main_loss: 1.6759 - classifier_output_aux_acc: 0.2735 - classifier_output_main_acc: 0.2694 - val_loss: 2.9864 - val_classifier_output_aux_loss: 1.4867 - val_classifier_output_main_loss: 1.4996 - val_classifier_output_aux_acc: 0.4069 - val_classifier_output_main_acc: 0.3875
…
normalized cm_main: [[… metrics: ['loss', 'classifier_output_aux_loss', 'classifier_output_main_loss', 'classifier_output_aux_acc', 'classifier_output_main_acc']
Test score: [3.3744855886035494, 1.8559738033678796, 1.518511775467131, 0.6983333333333334, 0.7683333333333333]
Test loss: 1.8559738033678796
Test accuracy of aux: 0.6983333333333334
Test accuracy of main: 0.7683333333333333
Saving model to disk 

__________________________________________________________________________________________________
Layer (type)                    Output Shape         Param #     Connected to                     
==================================================================================================
main_input_1 (InputLayer)       (None, 29, 6, 20, 1) 0                                            
__________________________________________________________________________________________________
main_input_2 (InputLayer)       (None, 29, 6, 20, 1) 0                                            
__________________________________________________________________________________________________
feature_output_aux (TimeDistrib (None, 29, 64)       78112       main_input_1[0][0]               
__________________________________________________________________________________________________
feature_output_main (TimeDistri (None, 29, 64)       78112       main_input_2[0][0]               
__________________________________________________________________________________________________
gru_3 (GRU)                     (None, 128)          74112       feature_output_aux[0][0]         
__________________________________________________________________________________________________
gru_4 (GRU)                     (None, 128)          74112       feature_output_main[0][0]        
__________________________________________________________________________________________________
dropout_8 (Dropout)             (None, 128)          0           gru_3[0][0]                      
__________________________________________________________________________________________________
dropout_10 (Dropout)            (None, 128)          0           gru_4[0][0]                      
__________________________________________________________________________________________________
gradient_reversal_3 (GradientRe (None, 128)          0           dropout_10[0][0]                 
__________________________________________________________________________________________________
gradient_reversal_4 (GradientRe (None, 128)          0           dropout_8[0][0]                  
__________________________________________________________________________________________________
concatenate_3 (Concatenate)     (None, 256)          0           dropout_8[0][0]                  
                                                                 gradient_reversal_3[0][0]        
__________________________________________________________________________________________________
concatenate_4 (Concatenate)     (None, 256)          0           dropout_10[0][0]                 
                                                                 gradient_reversal_4[0][0]        
__________________________________________________________________________________________________
dense_11 (Dense)                (None, 128)          32896       concatenate_3[0][0]              
__________________________________________________________________________________________________
dense_12 (Dense)                (None, 128)          32896       concatenate_4[0][0]              
__________________________________________________________________________________________________
dropout_11 (Dropout)            (None, 128)          0           dense_11[0][0]                   
__________________________________________________________________________________________________
dropout_12 (Dropout)            (None, 128)          0           dense_12[0][0]                   
__________________________________________________________________________________________________
classifier_output_aux (Dense)   (None, 6)            774         dropout_11[0][0]                 
__________________________________________________________________________________________________
classifier_output_main (Dense)  (None, 6)            774         dropout_12[0][0]                 
==================================================================================================
Total params: 371,788
Trainable params: 371,788
Non-trainable params: 0
__________________________________________________________________________________________________
None
