…
normalized cm_main: [[… 0.         … metrics: ['loss', 'classifier_output_aux_loss', 'classifier_output_main_loss', 'classifier_output_aux_acc', 'classifier_output_main_acc']
Test score: [2.702859933641222, 1.890125453207228, 0.8127344569284469, 0.705, 0.8544444444444445]
Test loss: 1.890125453207228
Test accuracy of aux: 0.705
Test accuracy of main: 0.8544444444444445
Saving model to disk 

__________________________________________________________________________________________________
Layer (type)                    Output Shape         Param #     Connected to                     
==================================================================================================
main_input_1 (InputLayer)       (None, 29, 6, 20, 1) 0                                            
__________________________________________________________________________________________________
main_input_2 (InputLayer)       (None, 29, 6, 20, 1) 0                                            
__________________________________________________________________________________________________
feature_output_aux (TimeDistrib (None, 29, 64)       78112       main_input_1[0][0]               
__________________________________________________________________________________________________
feature_output_main (TimeDistri (None, 29, 64)       78112       main_input_2[0][0]               
__________________________________________________________________________________________________
gru_1 (GRU)                     (None, 128)          74112       feature_output_aux[0][0]         
__________________________________________________________________________________________________
gru_2 (GRU)                     (None, 128)          74112       feature_output_main[0][0]        
__________________________________________________________________________________________________
dropout_2 (Dropout)             (None, 128)          0           gru_1[0][0]                      
__________________________________________________________________________________________________
dropout_4 (Dropout)             (None, 128)          0           gru_2[0][0]                      
__________________________________________________________________________________________________
gradient_reversal_1 (GradientRe (None, 128)          0           dropout_4[0][0]                  
__________________________________________________________________________________________________
gradient_reversal_2 (GradientRe (None, 128)          0           dropout_2[0][0]                  
__________________________________________________________________________________________________
concatenate_1 (Concatenate)     (None, 256)          0           dropout_2[0][0]                  
                                                                 gradient_reversal_1[0][0]        
__________________________________________________________________________________________________
concatenate_2 (Concatenate)     (None, 256)          0           dropout_4[0][0]                  
                                                                 gradient_reversal_2[0][0]        
__________________________________________________________________________________________________
dense_5 (Dense)                 (None, 128)          32896       concatenate_1[0][0]              
__________________________________________________________________________________________________
dense_6 (Dense)                 (None, 128)          32896       concatenate_2[0][0]              
__________________________________________________________________________________________________
dropout_5 (Dropout)             (None, 128)          0           dense_5[0][0]                    
__________________________________________________________________________________________________
dropout_6 (Dropout)             (None, 128)          0           dense_6[0][0]                    
__________________________________________________________________________________________________
classifier_output_aux (Dense)   (None, 6)            774         dropout_5[0][0]                  
__________________________________________________________________________________________________
classifier_output_main (Dense)  (None, 6)            774         dropout_6[0][0]                  
==================================================================================================
Total params: 371,788
Trainable params: 371,788
Non-trainable params: 0
__________________________________________________________________________________________________
None
Loading Data...
domain_type: 2
Loaded Data wf_tally_slice 2 (7200, 29, 6, 20, 1) 4 (7200, 6) 2 (1800, 29, 6, 20, 1)
n_timesteps: 29
Train on 6480 samples, validate on 720 samples
Epoch 1/1000
 - 28s - loss: 3.3708 - classifier_output_aux_loss: 1.7150 - classifier_output_main_loss: 1.6558 - classifier_output_aux_acc: 0.2474 - classifier_output_main_acc: 0.2758 - val_loss: 3.0084 - val_classifier_output_aux_loss: 1.5538 - val_classifier_output_main_loss: 1.4546 - val_classifier_output_aux_acc: 0.3444 - val_classifier_output_main_acc: 0.3778
…
 [… metrics: ['loss', 'classifier_output_aux_loss', 'classifier_output_main_loss', 'classifier_output_aux_acc', 'classifier_output_main_acc']
Test score: [2.227693891260359, 1.3655605162422095, 0.862133376741161, 0.7405555555555555, 0.8361111111111111]
Test loss: 1.3655605162422095
Test accuracy of aux: 0.7405555555555555
Test accuracy of main: 0.8361111111111111
Saving model to disk 

__________________________________________________________________________________________________
Layer (type)                    Output Shape         Param #     Connected to                     
==================================================================================================
main_input_1 (InputLayer)       (None, 29, 6, 20, 1) 0                                            
__________________________________________________________________________________________________
main_input_2 (InputLayer)       (None, 29, 6, 20, 1) 0                                            
__________________________________________________________________________________________________
feature_output_aux (TimeDistrib (None, 29, 64)       78112       main_input_1[0][0]               
__________________________________________________________________________________________________
feature_output_main (TimeDistri (None, 29, 64)       78112       main_input_2[0][0]               
__________________________________________________________________________________________________
gru_3 (GRU)                     (None, 128)          74112       feature_output_aux[0][0]         
__________________________________________________________________________________________________
gru_4 (GRU)                     (None, 128)          74112       feature_output_main[0][0]        
__________________________________________________________________________________________________
dropout_8 (Dropout)             (None, 128)          0           gru_3[0][0]                      
__________________________________________________________________________________________________
dropout_10 (Dropout)            (None, 128)          0           gru_4[0][0]                      
__________________________________________________________________________________________________
gradient_reversal_3 (GradientRe (None, 128)          0           dropout_10[0][0]                 
__________________________________________________________________________________________________
gradient_reversal_4 (GradientRe (None, 128)          0           dropout_8[0][0]                  
__________________________________________________________________________________________________
concatenate_3 (Concatenate)     (None, 256)          0           dropout_8[0][0]                  
                                                                 gradient_reversal_3[0][0]        
__________________________________________________________________________________________________
concatenate_4 (Concatenate)     (None, 256)          0           dropout_10[0][0]                 
                                                                 gradient_reversal_4[0][0]        
__________________________________________________________________________________________________
dense_11 (Dense)                (None, 128)          32896       concatenate_3[0][0]              
__________________________________________________________________________________________________
dense_12 (Dense)                (None, 128)          32896       concatenate_4[0][0]              
__________________________________________________________________________________________________
dropout_11 (Dropout)            (None, 128)          0           dense_11[0][0]                   
__________________________________________________________________________________________________
dropout_12 (Dropout)            (None, 128)          0           dense_12[0][0]                   
__________________________________________________________________________________________________
classifier_output_aux (Dense)   (None, 6)            774         dropout_11[0][0]                 
__________________________________________________________________________________________________
classifier_output_main (Dense)  (None, 6)            774         dropout_12[0][0]                 
==================================================================================================
Total params: 371,788
Trainable params: 371,788
Non-trainable params: 0
__________________________________________________________________________________________________
None
