…
normalized cm_main: [[… 0.         … metrics: ['loss', 'classifier_output_aux_loss', 'classifier_output_main_loss', 'classifier_output_aux_acc', 'classifier_output_main_acc']
Test score: [6.180888701015048, 3.7167140963342455, 2.464174579646852, 0.4716666666666667, 0.6072222222222222]
Test loss: 3.7167140963342455
Test accuracy of aux: 0.4716666666666667
Test accuracy of main: 0.6072222222222222
Saving model to disk 

__________________________________________________________________________________________________
Layer (type)                    Output Shape         Param #     Connected to                     
==================================================================================================
main_input_1 (InputLayer)       (None, 29, 6, 20, 2) 0                                            
__________________________________________________________________________________________________
main_input_2 (InputLayer)       (None, 29, 6, 20, 2) 0                                            
__________________________________________________________________________________________________
feature_output_aux (TimeDistrib (None, 29, 64)       78256       main_input_1[0][0]               
__________________________________________________________________________________________________
feature_output_main (TimeDistri (None, 29, 64)       78256       main_input_2[0][0]               
__________________________________________________________________________________________________
gru_1 (GRU)                     (None, 128)          74112       feature_output_aux[0][0]         
__________________________________________________________________________________________________
gru_2 (GRU)                     (None, 128)          74112       feature_output_main[0][0]        
__________________________________________________________________________________________________
dropout_2 (Dropout)             (None, 128)          0           gru_1[0][0]                      
__________________________________________________________________________________________________
dropout_4 (Dropout)             (None, 128)          0           gru_2[0][0]                      
__________________________________________________________________________________________________
gradient_reversal_1 (GradientRe (None, 128)          0           dropout_4[0][0]                  
__________________________________________________________________________________________________
gradient_reversal_2 (GradientRe (None, 128)          0           dropout_2[0][0]                  
__________________________________________________________________________________________________
concatenate_1 (Concatenate)     (None, 256)          0           dropout_2[0][0]                  
                                                                 gradient_reversal_1[0][0]        
__________________________________________________________________________________________________
concatenate_2 (Concatenate)     (None, 256)          0           dropout_4[0][0]                  
                                                                 gradient_reversal_2[0][0]        
__________________________________________________________________________________________________
dense_5 (Dense)                 (None, 128)          32896       concatenate_1[0][0]              
__________________________________________________________________________________________________
dense_6 (Dense)                 (None, 128)          32896       concatenate_2[0][0]              
__________________________________________________________________________________________________
dropout_5 (Dropout)             (None, 128)          0           dense_5[0][0]                    
__________________________________________________________________________________________________
dropout_6 (Dropout)             (None, 128)          0           dense_6[0][0]                    
__________________________________________________________________________________________________
classifier_output_aux (Dense)   (None, 6)            774         dropout_5[0][0]                  
__________________________________________________________________________________________________
classifier_output_main (Dense)  (None, 6)            774         dropout_6[0][0]                  
==================================================================================================
Total params: 372,076
Trainable params: 372,076
Non-trainable params: 0
__________________________________________________________________________________________________
None
Loading Data...
domain_type: 3
Loaded Data wf_tally_slice 2 (7200, 29, 6, 20, 2) 4 (7200, 6) 2 (1800, 29, 6, 20, 2)
n_timesteps: 29
Train on 6480 samples, validate on 720 samples
Epoch 1/1000
 - 46s - loss: 3.2469 - classifier_output_aux_loss: 1.6163 - classifier_output_main_loss: 1.6306 - classifier_output_aux_acc: 0.3039 - classifier_output_main_acc: 0.2978 - val_loss: 2.9445 - val_classifier_output_aux_loss: 1.4798 - val_classifier_output_main_loss: 1.4647 - val_classifier_output_aux_acc: 0.4069 - val_classifier_output_main_acc: 0.3833
…
metrics: ['loss', 'classifier_output_aux_loss', 'classifier_output_main_loss', 'classifier_output_aux_acc', 'classifier_output_main_acc']
Test score: [6.3448900561862525, 3.7253737619188096, 2.6195162596967485, 0.5288888888888889, 0.6572222222222223]
Test loss: 3.7253737619188096
Test accuracy of aux: 0.5288888888888889
Test accuracy of main: 0.6572222222222223
Saving model to disk 

__________________________________________________________________________________________________
Layer (type)                    Output Shape         Param #     Connected to                     
==================================================================================================
main_input_1 (InputLayer)       (None, 29, 6, 20, 2) 0                                            
__________________________________________________________________________________________________
main_input_2 (InputLayer)       (None, 29, 6, 20, 2) 0                                            
__________________________________________________________________________________________________
feature_output_aux (TimeDistrib (None, 29, 64)       78256       main_input_1[0][0]               
__________________________________________________________________________________________________
feature_output_main (TimeDistri (None, 29, 64)       78256       main_input_2[0][0]               
__________________________________________________________________________________________________
gru_3 (GRU)                     (None, 128)          74112       feature_output_aux[0][0]         
__________________________________________________________________________________________________
gru_4 (GRU)                     (None, 128)          74112       feature_output_main[0][0]        
__________________________________________________________________________________________________
dropout_8 (Dropout)             (None, 128)          0           gru_3[0][0]                      
__________________________________________________________________________________________________
dropout_10 (Dropout)            (None, 128)          0           gru_4[0][0]                      
__________________________________________________________________________________________________
gradient_reversal_3 (GradientRe (None, 128)          0           dropout_10[0][0]                 
__________________________________________________________________________________________________
gradient_reversal_4 (GradientRe (None, 128)          0           dropout_8[0][0]                  
__________________________________________________________________________________________________
concatenate_3 (Concatenate)     (None, 256)          0           dropout_8[0][0]                  
                                                                 gradient_reversal_3[0][0]        
__________________________________________________________________________________________________
concatenate_4 (Concatenate)     (None, 256)          0           dropout_10[0][0]                 
                                                                 gradient_reversal_4[0][0]        
__________________________________________________________________________________________________
dense_11 (Dense)                (None, 128)          32896       concatenate_3[0][0]              
__________________________________________________________________________________________________
dense_12 (Dense)                (None, 128)          32896       concatenate_4[0][0]              
__________________________________________________________________________________________________
dropout_11 (Dropout)            (None, 128)          0           dense_11[0][0]                   
__________________________________________________________________________________________________
dropout_12 (Dropout)            (None, 128)          0           dense_12[0][0]                   
__________________________________________________________________________________________________
classifier_output_aux (Dense)   (None, 6)            774         dropout_11[0][0]                 
__________________________________________________________________________________________________
classifier_output_main (Dense)  (None, 6)            774         dropout_12[0][0]                 
==================================================================================================
Total params: 372,076
Trainable params: 372,076
Non-trainable params: 0
__________________________________________________________________________________________________
None
