…
metrics: ['loss', 'classifier_output_aux_loss', 'classifier_output_main_loss', 'classifier_output_aux_acc', 'classifier_output_main_acc']
Test score: [0.30075883772172446, 0.08806003067991065, 0.212698806366728, 0.9844444444444445, 0.9616666666666667]
Test loss: 0.08806003067991065
Test accuracy of aux: 0.9844444444444445
Test accuracy of main: 0.9616666666666667
Saving model to disk 

__________________________________________________________________________________________________
Layer (type)                    Output Shape         Param #     Connected to                     
==================================================================================================
main_input_1 (InputLayer)       (None, 29, 6, 20, 3) 0                                            
__________________________________________________________________________________________________
main_input_2 (InputLayer)       (None, 29, 6, 20, 3) 0                                            
__________________________________________________________________________________________________
feature_output_aux (TimeDistrib (None, 29, 64)       78400       main_input_1[0][0]               
__________________________________________________________________________________________________
feature_output_main (TimeDistri (None, 29, 64)       78400       main_input_2[0][0]               
__________________________________________________________________________________________________
gru_1 (GRU)                     (None, 128)          74112       feature_output_aux[0][0]         
__________________________________________________________________________________________________
gru_2 (GRU)                     (None, 128)          74112       feature_output_main[0][0]        
__________________________________________________________________________________________________
dropout_2 (Dropout)             (None, 128)          0           gru_1[0][0]                      
__________________________________________________________________________________________________
dropout_4 (Dropout)             (None, 128)          0           gru_2[0][0]                      
__________________________________________________________________________________________________
gradient_reversal_1 (GradientRe (None, 128)          0           dropout_4[0][0]                  
__________________________________________________________________________________________________
gradient_reversal_2 (GradientRe (None, 128)          0           dropout_2[0][0]                  
__________________________________________________________________________________________________
concatenate_1 (Concatenate)     (None, 256)          0           dropout_2[0][0]                  
                                                                 gradient_reversal_1[0][0]        
__________________________________________________________________________________________________
concatenate_2 (Concatenate)     (None, 256)          0           dropout_4[0][0]                  
                                                                 gradient_reversal_2[0][0]        
__________________________________________________________________________________________________
dense_5 (Dense)                 (None, 128)          32896       concatenate_1[0][0]              
__________________________________________________________________________________________________
dense_6 (Dense)                 (None, 128)          32896       concatenate_2[0][0]              
__________________________________________________________________________________________________
dropout_5 (Dropout)             (None, 128)          0           dense_5[0][0]                    
__________________________________________________________________________________________________
dropout_6 (Dropout)             (None, 128)          0           dense_6[0][0]                    
__________________________________________________________________________________________________
classifier_output_aux (Dense)   (None, 6)            774         dropout_5[0][0]                  
__________________________________________________________________________________________________
classifier_output_main (Dense)  (None, 6)            774         dropout_6[0][0]                  
==================================================================================================
Total params: 372,364
Trainable params: 372,364
Non-trainable params: 0
__________________________________________________________________________________________________
None
Loading Data...
domain_type: 4
Loaded Data wf_tally_slice 2 (7200, 29, 6, 20, 3) 4 (7200, 6) 2 (1800, 29, 6, 20, 3)
n_timesteps: 29
Train on 6480 samples, validate on 720 samples
Epoch 1/1000
 - 24s - loss: 3.2707 - classifier_output_aux_loss: 1.6594 - classifier_output_main_loss: 1.6113 - classifier_output_aux_acc: 0.2815 - classifier_output_main_acc: 0.3130 - val_loss: 2.7915 - val_classifier_output_aux_loss: 1.3913 - val_classifier_output_main_loss: 1.4002 - val_classifier_output_aux_acc: 0.4431 - val_classifier_output_main_acc: 0.4458
…
metrics: ['loss', 'classifier_output_aux_loss', 'classifier_output_main_loss', 'classifier_output_aux_acc', 'classifier_output_main_acc']
Test score: [0.36108778155512294, 0.20858176226568434, 0.15250602240637015, 0.9722222222222222, 0.9711111111111111]
Test loss: 0.20858176226568434
Test accuracy of aux: 0.9722222222222222
Test accuracy of main: 0.9711111111111111
Saving model to disk 

__________________________________________________________________________________________________
Layer (type)                    Output Shape         Param #     Connected to                     
==================================================================================================
main_input_1 (InputLayer)       (None, 29, 6, 20, 3) 0                                            
__________________________________________________________________________________________________
main_input_2 (InputLayer)       (None, 29, 6, 20, 3) 0                                            
__________________________________________________________________________________________________
feature_output_aux (TimeDistrib (None, 29, 64)       78400       main_input_1[0][0]               
__________________________________________________________________________________________________
feature_output_main (TimeDistri (None, 29, 64)       78400       main_input_2[0][0]               
__________________________________________________________________________________________________
gru_19 (GRU)                    (None, 128)          74112       feature_output_aux[0][0]         
__________________________________________________________________________________________________
gru_20 (GRU)                    (None, 128)          74112       feature_output_main[0][0]        
__________________________________________________________________________________________________
dropout_56 (Dropout)            (None, 128)          0           gru_19[0][0]                     
__________________________________________________________________________________________________
dropout_58 (Dropout)            (None, 128)          0           gru_20[0][0]                     
__________________________________________________________________________________________________
gradient_reversal_19 (GradientR (None, 128)          0           dropout_58[0][0]                 
__________________________________________________________________________________________________
gradient_reversal_20 (GradientR (None, 128)          0           dropout_56[0][0]                 
__________________________________________________________________________________________________
concatenate_19 (Concatenate)    (None, 256)          0           dropout_56[0][0]                 
                                                                 gradient_reversal_19[0][0]       
__________________________________________________________________________________________________
concatenate_20 (Concatenate)    (None, 256)          0           dropout_58[0][0]                 
                                                                 gradient_reversal_20[0][0]       
__________________________________________________________________________________________________
dense_59 (Dense)                (None, 128)          32896       concatenate_19[0][0]             
__________________________________________________________________________________________________
dense_60 (Dense)                (None, 128)          32896       concatenate_20[0][0]             
__________________________________________________________________________________________________
dropout_59 (Dropout)            (None, 128)          0           dense_59[0][0]                   
__________________________________________________________________________________________________
dropout_60 (Dropout)            (None, 128)          0           dense_60[0][0]                   
__________________________________________________________________________________________________
classifier_output_aux (Dense)   (None, 6)            774         dropout_59[0][0]                 
__________________________________________________________________________________________________
classifier_output_main (Dense)  (None, 6)            774         dropout_60[0][0]                 
==================================================================================================
Total params: 372,364
Trainable params: 372,364
Non-trainable params: 0
__________________________________________________________________________________________________
None
